…
    "# define ResNet50 model\n",
    "ResNet50_model = ResNet50(weights='imagenet')"
   ]
  },
  {
   "cell_type": "code",
   "execution_count": 8,
   "metadata": {},
   "outputs": [
    {
     "name": "stdout",
     "output_type": "stream",
     "text": [
      "__________________________________________________________________________________________________\n",
      "Layer (type)                    Output Shape         Param #     Connected to                     \n",
      "==================================================================================================\n",
      "input_1 (InputLayer)            (None, 224, 224, 3)  0                                            \n",
      "__________________________________________________________________________________________________\n",
      "conv1 (Conv2D)                  (None, 112, 112, 64) 9472        input_1[0][0]                    \n",
      "__________________________________________________________________________________________________\n",
      "bn_conv1 (BatchNormalization)   (None, 112, 112, 64) 256         conv1[0][0]                      \n",
      "__________________________________________________________________________________________________\n",
      "activation_1 (Activation)       (None, 112, 112, 64) 0           bn_conv1[0][0]                   \n",
      "__________________________________________________________________________________________________\n",
      "max_pooling2d_1 (MaxPooling2D)  (None, 55, 55, 64)   0           activation_1[0][0]               \n",
      "__________________________________________________________________________________________________\n",
      "res2a_branch2a (Conv2D)         (None, 55, 55, 64)   4160        max_pooling2d_1[0][0]            \n",
      "__________________________________________________________________________________________________\n",
      "bn2a_branch2a (BatchNormalizati (None, 55, 55, 64)   256         res2a_branch2a[0][0]             \n",
      "__________________________________________________________________________________________________\n",
      "activation_2 (Activation)       (None, 55, 55, 64)   0           bn2a_branch2a[0][0]              \n",
      "__________________________________________________________________________________________________\n",
      "res2a_branch2b (Conv2D)         (None, 55, 55, 64)   36928       activation_2[0][0]               \n",
      "__________________________________________________________________________________________________\n",
      "bn2a_branch2b (BatchNormalizati (None, 55, 55, 64)   256         res2a_branch2b[0][0]             \n",
      "__________________________________________________________________________________________________\n",
      "activation_3 (Activation)       (None, 55, 55, 64)   0           bn2a_branch2b[0][0]              \n",
      "__________________________________________________________________________________________________\n",
      "res2a_branch2c (Conv2D)         (None, 55, 55, 256)  16640       activation_3[0][0]               \n",
      "__________________________________________________________________________________________________\n",
      "res2a_branch1 (Conv2D)          (None, 55, 55, 256)  16640       max_pooling2d_1[0][0]            \n",
      "__________________________________________________________________________________________________\n",
      "bn2a_branch2c (BatchNormalizati (None, 55, 55, 256)  1024        res2a_branch2c[0][0]             \n",
      "__________________________________________________________________________________________________\n",
      "bn2a_branch1 (BatchNormalizatio (None, 55, 55, 256)  1024        res2a_branch1[0][0]              \n",
      "__________________________________________________________________________________________________\n",
      "add_1 (Add)                     (None, 55, 55, 256)  0           bn2a_branch2c[0][0]              \n",
      "                                                                 bn2a_branch1[0][0]               \n",
      "__________________________________________________________________________________________________\n",
      "activation_4 (Activation)       (None, 55, 55, 256)  0           add_1[0][0]                      \n",
      "__________________________________________________________________________________________________\n",
      "res2b_branch2a (Conv2D)         (None, 55, 55, 64)   16448       activation_4[0][0]               \n",
      "__________________________________________________________________________________________________\n",
      "bn2b_branch2a (BatchNormalizati (None, 55, 55, 64)   256         res2b_branch2a[0][0]             \n",
      "__________________________________________________________________________________________________\n",
      "activation_5 (Activation)       (None, 55, 55, 64)   0           bn2b_branch2a[0][0]              \n",
      "__________________________________________________________________________________________________\n",
      "res2b_branch2b (Conv2D)         (None, 55, 55, 64)   36928       activation_5[0][0]               \n",
      "__________________________________________________________________________________________________\n",
      "bn2b_branch2b (BatchNormalizati (None, 55, 55, 64)   256         res2b_branch2b[0][0]             \n",
      "__________________________________________________________________________________________________\n",
      "activation_6 (Activation)       (None, 55, 55, 64)   0           bn2b_branch2b[0][0]              \n",
      "__________________________________________________________________________________________________\n",
      "res2b_branch2c (Conv2D)         (None, 55, 55, 256)  16640       activation_6[0][0]               \n",
      "__________________________________________________________________________________________________\n",
      "bn2b_branch2c (BatchNormalizati (None, 55, 55, 256)  1024        res2b_branch2c[0][0]             \n",
      "__________________________________________________________________________________________________\n",
      "add_2 (Add)                     (None, 55, 55, 256)  0           bn2b_branch2c[0][0]              \n",
      "                                                                 activation_4[0][0]               \n",
      "__________________________________________________________________________________________________\n",
      "activation_7 (Activation)       (None, 55, 55, 256)  0           add_2[0][0]                      \n",
      "__________________________________________________________________________________________________\n",
      "res2c_branch2a (Conv2D)         (None, 55, 55, 64)   16448       activation_7[0][0]               \n",
      "__________________________________________________________________________________________________\n",
      "bn2c_branch2a (BatchNormalizati (None, 55, 55, 64)   256         res2c_branch2a[0][0]             \n",
      "__________________________________________________________________________________________________\n",
      "activation_8 (Activation)       (None, 55, 55, 64)   0           bn2c_branch2a[0][0]              \n",
      "__________________________________________________________________________________________________\n",
      "res2c_branch2b (Conv2D)         (None, 55, 55, 64)   36928       activation_8[0][0]               \n",
      "__________________________________________________________________________________________________\n",
      "bn2c_branch2b (BatchNormalizati (None, 55, 55, 64)   256         res2c_branch2b[0][0]             \n",
      "__________________________________________________________________________________________________\n",
      "activation_9 (Activation)       (None, 55, 55, 64)   0           bn2c_branch2b[0][0]              \n",
      "__________________________________________________________________________________________________\n",
      "res2c_branch2c (Conv2D)         (None, 55, 55, 256)  16640       activation_9[0][0]               \n",
      "__________________________________________________________________________________________________\n",
      "bn2c_branch2c (BatchNormalizati (None, 55, 55, 256)  1024        res2c_branch2c[0][0]             \n",
      "__________________________________________________________________________________________________\n",
      "add_3 (Add)                     (None, 55, 55, 256)  0           bn2c_branch2c[0][0]              \n",
      "                                                                 activation_7[0][0]               \n",
      "__________________________________________________________________________________________________\n",
      "activation_10 (Activation)      (None, 55, 55, 256)  0           add_3[0][0]                      \n",
      "__________________________________________________________________________________________________\n",
      "res3a_branch2a (Conv2D)         (None, 28, 28, 128)  32896       activation_10[0][0]              \n",
      "__________________________________________________________________________________________________\n",
      "bn3a_branch2a (BatchNormalizati (None, 28, 28, 128)  512         res3a_branch2a[0][0]             \n",
      "__________________________________________________________________________________________________\n",
      "activation_11 (Activation)      (None, 28, 28, 128)  0           bn3a_branch2a[0][0]              \n",
      "__________________________________________________________________________________________________\n",
      "res3a_branch2b (Conv2D)         (None, 28, 28, 128)  147584      activation_11[0][0]              \n",
      "__________________________________________________________________________________________________\n",
      "bn3a_branch2b (BatchNormalizati (None, 28, 28, 128)  512         res3a_branch2b[0][0]             \n",
      "__________________________________________________________________________________________________\n",
      "activation_12 (Activation)      (None, 28, 28, 128)  0           bn3a_branch2b[0][0]              \n",
      "__________________________________________________________________________________________________\n",
      "res3a_branch2c (Conv2D)         (None, 28, 28, 512)  66048       activation_12[0][0]              \n",
      "__________________________________________________________________________________________________\n",
      "res3a_branch1 (Conv2D)          (None, 28, 28, 512)  131584      activation_10[0][0]              \n",
      "__________________________________________________________________________________________________\n",
      "bn3a_branch2c (BatchNormalizati (None, 28, 28, 512)  2048        res3a_branch2c[0][0]             \n",
      "__________________________________________________________________________________________________\n",
      "bn3a_branch1 (BatchNormalizatio (None, 28, 28, 512)  2048        res3a_branch1[0][0]              \n",
      "__________________________________________________________________________________________________\n",
      "add_4 (Add)                     (None, 28, 28, 512)  0           bn3a_branch2c[0][0]              \n",
      "                                                                 bn3a_branch1[0][0]               \n",
      "__________________________________________________________________________________________________\n",
      "activation_13 (Activation)      (None, 28, 28, 512)  0           add_4[0][0]                      \n",
      "__________________________________________________________________________________________________\n",
      "res3b_branch2a (Conv2D)         (None, 28, 28, 128)  65664       activation_13[0][0]              \n",
      "__________________________________________________________________________________________________\n",
      "bn3b_branch2a (BatchNormalizati (None, 28, 28, 128)  512         res3b_branch2a[0][0]             \n",
      "__________________________________________________________________________________________________\n",
      "activation_14 (Activation)      (None, 28, 28, 128)  0           bn3b_branch2a[0][0]              \n",
      "__________________________________________________________________________________________________\n",
      "res3b_branch2b (Conv2D)         (None, 28, 28, 128)  147584      activation_14[0][0]              \n",
      "__________________________________________________________________________________________________\n",
      "bn3b_branch2b (BatchNormalizati (None, 28, 28, 128)  512         res3b_branch2b[0][0]             \n",
      "__________________________________________________________________________________________________\n",
      "activation_15 (Activation)      (None, 28, 28, 128)  0           bn3b_branch2b[0][0]              \n",
      "__________________________________________________________________________________________________\n",
      "res3b_branch2c (Conv2D)         (None, 28, 28, 512)  66048       activation_15[0][0]              \n",
      "__________________________________________________________________________________________________\n",
      "bn3b_branch2c (BatchNormalizati (None, 28, 28, 512)  2048        res3b_branch2c[0][0]             \n",
      "__________________________________________________________________________________________________\n",
      "add_5 (Add)                     (None, 28, 28, 512)  0           bn3b_branch2c[0][0]              \n",
      "                                                                 activation_13[0][0]              \n",
      "__________________________________________________________________________________________________\n",
      "activation_16 (Activation)      (None, 28, 28, 512)  0           add_5[0][0]                      \n",
      "__________________________________________________________________________________________________\n",
      "res3c_branch2a (Conv2D)         (None, 28, 28, 128)  65664       activation_16[0][0]              \n",
      "__________________________________________________________________________________________________\n",
      "bn3c_branch2a (BatchNormalizati (None, 28, 28, 128)  512         res3c_branch2a[0][0]             \n",
      "__________________________________________________________________________________________________\n",
      "activation_17 (Activation)      (None, 28, 28, 128)  0           bn3c_branch2a[0][0]              \n",
      "__________________________________________________________________________________________________\n",
      "res3c_branch2b (Conv2D)         (None, 28, 28, 128)  147584      activation_17[0][0]              \n",
      "__________________________________________________________________________________________________\n",
      "bn3c_branch2b (BatchNormalizati (None, 28, 28, 128)  512         res3c_branch2b[0][0]             \n",
      "__________________________________________________________________________________________________\n",
      "activation_18 (Activation)      (None, 28, 28, 128)  0           bn3c_branch2b[0][0]              \n",
      "__________________________________________________________________________________________________\n",
      "res3c_branch2c (Conv2D)         (None, 28, 28, 512)  66048       activation_18[0][0]              \n",
      "__________________________________________________________________________________________________\n",
      "bn3c_branch2c (BatchNormalizati (None, 28, 28, 512)  2048        res3c_branch2c[0][0]             \n",
      "__________________________________________________________________________________________________\n",
      "add_6 (Add)                     (None, 28, 28, 512)  0           bn3c_branch2c[0][0]              \n",
      "                                                                 activation_16[0][0]              \n",
      "__________________________________________________________________________________________________\n",
      "activation_19 (Activation)      (None, 28, 28, 512)  0           add_6[0][0]                      \n",
      "__________________________________________________________________________________________________\n",
      "res3d_branch2a (Conv2D)         (None, 28, 28, 128)  65664       activation_19[0][0]              \n",
      "__________________________________________________________________________________________________\n",
      "bn3d_branch2a (BatchNormalizati (None, 28, 28, 128)  512         res3d_branch2a[0][0]             \n",
      "__________________________________________________________________________________________________\n",
      "activation_20 (Activation)      (None, 28, 28, 128)  0           bn3d_branch2a[0][0]              \n",
      "__________________________________________________________________________________________________\n",
      "res3d_branch2b (Conv2D)         (None, 28, 28, 128)  147584      activation_20[0][0]              \n",
      "__________________________________________________________________________________________________\n",
      "bn3d_branch2b (BatchNormalizati (None, 28, 28, 128)  512         res3d_branch2b[0][0]             \n",
      "__________________________________________________________________________________________________\n",
      "activation_21 (Activation)      (None, 28, 28, 128)  0           bn3d_branch2b[0][0]              \n",
      "__________________________________________________________________________________________________\n",
      "res3d_branch2c (Conv2D)         (None, 28, 28, 512)  66048       activation_21[0][0]              \n",
      "__________________________________________________________________________________________________\n",
      "bn3d_branch2c (BatchNormalizati (None, 28, 28, 512)  2048        res3d_branch2c[0][0]             \n",
      "__________________________________________________________________________________________________\n",
      "add_7 (Add)                     (None, 28, 28, 512)  0           bn3d_branch2c[0][0]              \n",
      "                                                                 activation_19[0][0]              \n",
      "__________________________________________________________________________________________________\n",
      "activation_22 (Activation)      (None, 28, 28, 512)  0           add_7[0][0]                      \n",
      "__________________________________________________________________________________________________\n",
      "res4a_branch2a (Conv2D)         (None, 14, 14, 256)  131328      activation_22[0][0]              \n",
      "__________________________________________________________________________________________________\n",
      "bn4a_branch2a (BatchNormalizati (None, 14, 14, 256)  1024        res4a_branch2a[0][0]             \n",
      "__________________________________________________________________________________________________\n",
      "activation_23 (Activation)      (None, 14, 14, 256)  0           bn4a_branch2a[0][0]              \n",
      "__________________________________________________________________________________________________\n",
      "res4a_branch2b (Conv2D)         (None, 14, 14, 256)  590080      activation_23[0][0]              \n",
      "__________________________________________________________________________________________________\n",
      "bn4a_branch2b (BatchNormalizati (None, 14, 14, 256)  1024        res4a_branch2b[0][0]             \n",
      "__________________________________________________________________________________________________\n",
      "activation_24 (Activation)      (None, 14, 14, 256)  0           bn4a_branch2b[0][0]              \n",
      "__________________________________________________________________________________________________\n",
      "res4a_branch2c (Conv2D)         (None, 14, 14, 1024) 263168      activation_24[0][0]              \n",
      "__________________________________________________________________________________________________\n",
      "res4a_branch1 (Conv2D)          (None, 14, 14, 1024) 525312      activation_22[0][0]              \n",
      "__________________________________________________________________________________________________\n",
      "bn4a_branch2c (BatchNormalizati (None, 14, 14, 1024) 4096        res4a_branch2c[0][0]             \n",
      "__________________________________________________________________________________________________\n",
      "bn4a_branch1 (BatchNormalizatio (None, 14, 14, 1024) 4096        res4a_branch1[0][0]              \n",
      "__________________________________________________________________________________________________\n",
      "add_8 (Add)                     (None, 14, 14, 1024) 0           bn4a_branch2c[0][0]              \n",
      "                                                                 bn4a_branch1[0][0]               \n",
      "__________________________________________________________________________________________________\n",
      "activation_25 (Activation)      (None, 14, 14, 1024) 0           add_8[0][0]                      \n",
      "__________________________________________________________________________________________________\n",
      "res4b_branch2a (Conv2D)         (None, 14, 14, 256)  262400      activation_25[0][0]              \n",
      "__________________________________________________________________________________________________\n",
      "bn4b_branch2a (BatchNormalizati (None, 14, 14, 256)  1024        res4b_branch2a[0][0]             \n",
      "__________________________________________________________________________________________________\n",
      "activation_26 (Activation)      (None, 14, 14, 256)  0           bn4b_branch2a[0][0]              \n",
      "__________________________________________________________________________________________________\n",
      "res4b_branch2b (Conv2D)         (None, 14, 14, 256)  590080      activation_26[0][0]              \n",
      "__________________________________________________________________________________________________\n",
      "bn4b_branch2b (BatchNormalizati (None, 14, 14, 256)  1024        res4b_branch2b[0][0]             \n",
      "__________________________________________________________________________________________________\n",
      "activation_27 (Activation)      (None, 14, 14, 256)  0           bn4b_branch2b[0][0]              \n",
      "__________________________________________________________________________________________________\n",
      "res4b_branch2c (Conv2D)         (None, 14, 14, 1024) 263168      activation_27[0][0]              \n",
      "__________________________________________________________________________________________________\n",
      "bn4b_branch2c (BatchNormalizati (None, 14, 14, 1024) 4096        res4b_branch2c[0][0]             \n",
      "__________________________________________________________________________________________________\n",
      "add_9 (Add)                     (None, 14, 14, 1024) 0           bn4b_branch2c[0][0]              \n",
      "                                                                 activation_25[0][0]              \n",
      "__________________________________________________________________________________________________\n",
      "activation_28 (Activation)      (None, 14, 14, 1024) 0           add_9[0][0]                      \n",
      "__________________________________________________________________________________________________\n",
      "res4c_branch2a (Conv2D)         (None, 14, 14, 256)  262400      activation_28[0][0]              \n",
      "__________________________________________________________________________________________________\n",
      "bn4c_branch2a (BatchNormalizati (None, 14, 14, 256)  1024        res4c_branch2a[0][0]             \n",
      "__________________________________________________________________________________________________\n",
      "activation_29 (Activation)      (None, 14, 14, 256)  0           bn4c_branch2a[0][0]              \n",
      "__________________________________________________________________________________________________\n",
      "res4c_branch2b (Conv2D)         (None, 14, 14, 256)  590080      activation_29[0][0]              \n",
      "__________________________________________________________________________________________________\n",
      "bn4c_branch2b (BatchNormalizati (None, 14, 14, 256)  1024        res4c_branch2b[0][0]             \n",
      "__________________________________________________________________________________________________\n",
      "activation_30 (Activation)      (None, 14, 14, 256)  0           bn4c_branch2b[0][0]              \n",
      "__________________________________________________________________________________________________\n",
      "res4c_branch2c (Conv2D)         (None, 14, 14, 1024) 263168      activation_30[0][0]              \n",
      "__________________________________________________________________________________________________\n",
      "bn4c_branch2c (BatchNormalizati (None, 14, 14, 1024) 4096        res4c_branch2c[0][0]             \n",
      "__________________________________________________________________________________________________\n",
      "add_10 (Add)                    (None, 14, 14, 1024) 0           bn4c_branch2c[0][0]              \n",
      "                                                                 activation_28[0][0]              \n",
      "__________________________________________________________________________________________________\n",
      "activation_31 (Activation)      (None, 14, 14, 1024) 0           add_10[0][0]                     \n",
      "__________________________________________________________________________________________________\n",
      "res4d_branch2a (Conv2D)         (None, 14, 14, 256)  262400      activation_31[0][0]              \n",
      "__________________________________________________________________________________________________\n",
      "bn4d_branch2a (BatchNormalizati (None, 14, 14, 256)  1024        res4d_branch2a[0][0]             \n",
      "__________________________________________________________________________________________________\n",
      "activation_32 (Activation)      (None, 14, 14, 256)  0           bn4d_branch2a[0][0]              \n",
      "__________________________________________________________________________________________________\n",
      "res4d_branch2b (Conv2D)         (None, 14, 14, 256)  590080      activation_32[0][0]              \n",
      "__________________________________________________________________________________________________\n",
      "bn4d_branch2b (BatchNormalizati (None, 14, 14, 256)  1024        res4d_branch2b[0][0]             \n",
      "__________________________________________________________________________________________________\n",
      "activation_33 (Activation)      (None, 14, 14, 256)  0           bn4d_branch2b[0][0]              \n",
      "__________________________________________________________________________________________________\n",
      "res4d_branch2c (Conv2D)         (None, 14, 14, 1024) 263168      activation_33[0][0]              \n",
      "__________________________________________________________________________________________________\n",
      "bn4d_branch2c (BatchNormalizati (None, 14, 14, 1024) 4096        res4d_branch2c[0][0]             \n",
      "__________________________________________________________________________________________________\n",
      "add_11 (Add)                    (None, 14, 14, 1024) 0           bn4d_branch2c[0][0]              \n",
      "                                                                 activation_31[0][0]              \n",
      "__________________________________________________________________________________________________\n",
      "activation_34 (Activation)      (None, 14, 14, 1024) 0           add_11[0][0]                     \n",
      "__________________________________________________________________________________________________\n",
      "res4e_branch2a (Conv2D)         (None, 14, 14, 256)  262400      activation_34[0][0]              \n",
      "__________________________________________________________________________________________________\n",
      "bn4e_branch2a (BatchNormalizati (None, 14, 14, 256)  1024        res4e_branch2a[0][0]             \n",
      "__________________________________________________________________________________________________\n",
      "activation_35 (Activation)      (None, 14, 14, 256)  0           bn4e_branch2a[0][0]              \n",
      "__________________________________________________________________________________________________\n",
      "res4e_branch2b (Conv2D)         (None, 14, 14, 256)  590080      activation_35[0][0]              \n",
      "__________________________________________________________________________________________________\n",
      "bn4e_branch2b (BatchNormalizati (None, 14, 14, 256)  1024        res4e_branch2b[0][0]             \n",
      "__________________________________________________________________________________________________\n",
      "activation_36 (Activation)      (None, 14, 14, 256)  0           bn4e_branch2b[0][0]              \n",
      "__________________________________________________________________________________________________\n",
      "res4e_branch2c (Conv2D)         (None, 14, 14, 1024) 263168      activation_36[0][0]              \n",
      "__________________________________________________________________________________________________\n",
      "bn4e_branch2c (BatchNormalizati (None, 14, 14, 1024) 4096        res4e_branch2c[0][0]             \n",
      "__________________________________________________________________________________________________\n",
      "add_12 (Add)                    (None, 14, 14, 1024) 0           bn4e_branch2c[0][0]              \n",
      "                                                                 activation_34[0][0]              \n",
      "__________________________________________________________________________________________________\n",
      "activation_37 (Activation)      (None, 14, 14, 1024) 0           add_12[0][0]                     \n",
      "__________________________________________________________________________________________________\n",
      "res4f_branch2a (Conv2D)         (None, 14, 14, 256)  262400      activation_37[0][0]              \n",
      "__________________________________________________________________________________________________\n",
      "bn4f_branch2a (BatchNormalizati (None, 14, 14, 256)  1024        res4f_branch2a[0][0]             \n",
      "__________________________________________________________________________________________________\n",
      "activation_38 (Activation)      (None, 14, 14, 256)  0           bn4f_branch2a[0][0]              \n",
      "__________________________________________________________________________________________________\n",
      "res4f_branch2b (Conv2D)         (None, 14, 14, 256)  590080      activation_38[0][0]              \n",
      "__________________________________________________________________________________________________\n",
      "bn4f_branch2b (BatchNormalizati (None, 14, 14, 256)  1024        res4f_branch2b[0][0]             \n",
      "__________________________________________________________________________________________________\n",
      "activation_39 (Activation)      (None, 14, 14, 256)  0           bn4f_branch2b[0][0]              \n",
      "__________________________________________________________________________________________________\n",
      "res4f_branch2c (Conv2D)         (None, 14, 14, 1024) 263168      activation_39[0][0]              \n",
      "__________________________________________________________________________________________________\n",
      "bn4f_branch2c (BatchNormalizati (None, 14, 14, 1024) 4096        res4f_branch2c[0][0]             \n",
      "__________________________________________________________________________________________________\n",
      "add_13 (Add)                    (None, 14, 14, 1024) 0           bn4f_branch2c[0][0]              \n",
      "                                                                 activation_37[0][0]              \n",
      "__________________________________________________________________________________________________\n",
      "activation_40 (Activation)      (None, 14, 14, 1024) 0           add_13[0][0]                     \n",
      "__________________________________________________________________________________________________\n",
      "res5a_branch2a (Conv2D)         (None, 7, 7, 512)    524800      activation_40[0][0]              \n",
      "__________________________________________________________________________________________________\n",
      "bn5a_branch2a (BatchNormalizati (None, 7, 7, 512)    2048        res5a_branch2a[0][0]             \n",
      "__________________________________________________________________________________________________\n",
      "activation_41 (Activation)      (None, 7, 7, 512)    0           bn5a_branch2a[0][0]              \n",
      "__________________________________________________________________________________________________\n",
      "res5a_branch2b (Conv2D)         (None, 7, 7, 512)    2359808     activation_41[0][0]              \n",
      "__________________________________________________________________________________________________\n",
      "bn5a_branch2b (BatchNormalizati (None, 7, 7, 512)    2048        res5a_branch2b[0][0]             \n",
      "__________________________________________________________________________________________________\n",
      "activation_42 (Activation)      (None, 7, 7, 512)    0           bn5a_branch2b[0][0]              \n",
      "__________________________________________________________________________________________________\n",
      "res5a_branch2c (Conv2D)         (None, 7, 7, 2048)   1050624     activation_42[0][0]              \n",
      "__________________________________________________________________________________________________\n",
      "res5a_branch1 (Conv2D)          (None, 7, 7, 2048)   2099200     activation_40[0][0]              \n",
      "__________________________________________________________________________________________________\n",
      "bn5a_branch2c (BatchNormalizati (None, 7, 7, 2048)   8192        res5a_branch2c[0][0]             \n",
      "__________________________________________________________________________________________________\n",
      "bn5a_branch1 (BatchNormalizatio (None, 7, 7, 2048)   8192        res5a_branch1[0][0]              \n",
      "__________________________________________________________________________________________________\n",
      "add_14 (Add)                    (None, 7, 7, 2048)   0           bn5a_branch2c[0][0]              \n",
      "                                                                 bn5a_branch1[0][0]               \n",
      "__________________________________________________________________________________________________\n",
      "activation_43 (Activation)      (None, 7, 7, 2048)   0           add_14[0][0]                     \n",
      "__________________________________________________________________________________________________\n",
      "res5b_branch2a (Conv2D)         (None, 7, 7, 512)    1049088     activation_43[0][0]              \n",
      "__________________________________________________________________________________________________\n",
      "bn5b_branch2a (BatchNormalizati (None, 7, 7, 512)    2048        res5b_branch2a[0][0]             \n",
      "__________________________________________________________________________________________________\n",
      "activation_44 (Activation)      (None, 7, 7, 512)    0           bn5b_branch2a[0][0]              \n",
      "__________________________________________________________________________________________________\n",
      "res5b_branch2b (Conv2D)         (None, 7, 7, 512)    2359808     activation_44[0][0]              \n",
      "__________________________________________________________________________________________________\n",
      "bn5b_branch2b (BatchNormalizati (None, 7, 7, 512)    2048        res5b_branch2b[0][0]             \n",
      "__________________________________________________________________________________________________\n",
      "activation_45 (Activation)      (None, 7, 7, 512)    0           bn5b_branch2b[0][0]              \n",
      "__________________________________________________________________________________________________\n",
      "res5b_branch2c (Conv2D)         (None, 7, 7, 2048)   1050624     activation_45[0][0]              \n",
      "__________________________________________________________________________________________________\n",
      "bn5b_branch2c (BatchNormalizati (None, 7, 7, 2048)   8192        res5b_branch2c[0][0]             \n",
      "__________________________________________________________________________________________________\n",
      "add_15 (Add)                    (None, 7, 7, 2048)   0           bn5b_branch2c[0][0]              \n",
      "                                                                 activation_43[0][0]              \n",
      "__________________________________________________________________________________________________\n",
      "activation_46 (Activation)      (None, 7, 7, 2048)   0           add_15[0][0]                     \n",
      "__________________________________________________________________________________________________\n",
      "res5c_branch2a (Conv2D)         (None, 7, 7, 512)    1049088     activation_46[0][0]              \n",
      "__________________________________________________________________________________________________\n",
      "bn5c_branch2a (BatchNormalizati (None, 7, 7, 512)    2048        res5c_branch2a[0][0]             \n",
      "__________________________________________________________________________________________________\n",
      "activation_47 (Activation)      (None, 7, 7, 512)    0           bn5c_branch2a[0][0]              \n",
      "__________________________________________________________________________________________________\n",
      "res5c_branch2b (Conv2D)         (None, 7, 7, 512)    2359808     activation_47[0][0]              \n",
      "__________________________________________________________________________________________________\n",
      "bn5c_branch2b (BatchNormalizati (None, 7, 7, 512)    2048        res5c_branch2b[0][0]             \n",
      "__________________________________________________________________________________________________\n",
      "activation_48 (Activation)      (None, 7, 7, 512)    0           bn5c_branch2b[0][0]              \n",
      "__________________________________________________________________________________________________\n",
      "res5c_branch2c (Conv2D)         (None, 7, 7, 2048)   1050624     activation_48[0][0]              \n",
      "__________________________________________________________________________________________________\n",
      "bn5c_branch2c (BatchNormalizati (None, 7, 7, 2048)   8192        res5c_branch2c[0][0]             \n",
      "__________________________________________________________________________________________________\n",
      "add_16 (Add)                    (None, 7, 7, 2048)   0           bn5c_branch2c[0][0]              \n",
      "                                                                 activation_46[0][0]              \n",
      "__________________________________________________________________________________________________\n",
      "activation_49 (Activation)      (None, 7, 7, 2048)   0           add_16[0][0]                     \n",
      "__________________________________________________________________________________________________\n",
      "avg_pool (AveragePooling2D)     (None, 1, 1, 2048)   0           activation_49[0][0]              \n",
      "__________________________________________________________________________________________________\n",
      "flatten_1 (Flatten)             (None, 2048)         0           avg_pool[0][0]                   \n",
      "__________________________________________________________________________________________________\n",
      "fc1000 (Dense)                  (None, 1000)         2049000     flatten_1[0][0]                  \n",
      "==================================================================================================\n",
      "Total params: 25,636,712\n",
      "Trainable params: 25,583,592\n",
      "Non-trainable params: 53,120\n",
      "__________________________________________________________________________________________________\n"
     ]
    }
   ],
   "source": [
…
    "The layers mentioned above are followed by 2 fully connected layers, where the last layer has 133 nodes and the softmax activation function, which makes sure that there is a probability for each class at the end. \n",
    "To avoid overfitting a dropout layer was added between the dense layers. \n"
   ]
  },
  {
   "cell_type": "code",
   "execution_count": 14,
   "metadata": {},
   "outputs": [
    {
     "name": "stdout",
     "output_type": "stream",
     "text": [
      "_________________________________________________________________\n",
      "Layer (type)                 Output Shape              Param #   \n",
      "=================================================================\n",
      "conv2d_1 (Conv2D)            (None, 224, 224, 16)      208       \n",
      "_________________________________________________________________\n",
      "max_pooling2d_2 (MaxPooling2 (None, 112, 112, 16)      0         \n",
      "_________________________________________________________________\n",
      "conv2d_2 (Conv2D)            (None, 112, 112, 32)      2080      \n",
      "_________________________________________________________________\n",
      "max_pooling2d_3 (MaxPooling2 (None, 56, 56, 32)        0         \n",
      "_________________________________________________________________\n",
      "conv2d_3 (Conv2D)            (None, 56, 56, 64)        8256      \n",
      "_________________________________________________________________\n",
      "max_pooling2d_4 (MaxPooling2 (None, 28, 28, 64)        0         \n",
      "_________________________________________________________________\n",
      "dropout_1 (Dropout)          (None, 28, 28, 64)        0         \n",
      "_________________________________________________________________\n",
      "flatten_2 (Flatten)          (None, 50176)             0         \n",
      "_________________________________________________________________\n",
      "dense_1 (Dense)              (None, 1500)              75265500  \n",
      "_________________________________________________________________\n",
      "dropout_2 (Dropout)          (None, 1500)              0         \n",
      "_________________________________________________________________\n",
      "dense_2 (Dense)              (None, 133)               199633    \n",
      "=================================================================\n",
      "Total params: 75,475,677\n",
      "Trainable params: 75,475,677\n",
      "Non-trainable params: 0\n",
      "_________________________________________________________________\n"
     ]
    }
   ],
   "source": [
    "from keras.layers import Conv2D, MaxPooling2D, GlobalAveragePooling2D\n",
    "from keras.layers import Dropout, Flatten, Dense\n",
…
    "I tried different Dropout rates (0.1,0.2) and different optimizers on the compiling step. All combinations results in an accurancy between around 80% and 85%. The model below has an accurancy of 84.8%\n",
    "\n"
   ]
  },
  {
   "cell_type": "code",
   "execution_count": 28,
   "metadata": {},
   "outputs": [
    {
     "name": "stdout",
     "output_type": "stream",
     "text": [
      "_________________________________________________________________\n",
      "Layer (type)                 Output Shape              Param #   \n",
      "=================================================================\n",
      "global_average_pooling2d_2 ( (None, 2048)              0         \n",
      "_________________________________________________________________\n",
      "dropout_3 (Dropout)          (None, 2048)              0         \n",
      "_________________________________________________________________\n",
      "dense_4 (Dense)              (None, 1024)              2098176   \n",
      "_________________________________________________________________\n",
      "dropout_4 (Dropout)          (None, 1024)              0         \n",
      "_________________________________________________________________\n",
      "dense_5 (Dense)              (None, 133)               136325    \n",
      "=================================================================\n",
      "Total params: 2,234,501\n",
      "Trainable params: 2,234,501\n",
      "Non-trainable params: 0\n",
      "_________________________________________________________________\n"
     ]
    }
   ],
   "source": [
    "### TODO: Define your architecture.\n",
    "resnet50_model = Sequential()\n",
    "resnet50_model.add(GlobalAveragePooling2D(input_shape=train_resnet50.shape[1:]))\n",
…
